2025-08-15 20:37:51,874 | INFO : Stored configuration file in 'Results/Rep-Learning/Dataset/Crowdsource/2025-08-15_20-37'
2025-08-15 20:37:52,049 | INFO : Using device: cuda
2025-08-15 20:37:52,049 | INFO : Loading Data ...
2025-08-15 20:37:54,219 | INFO : Pre-Training Self Supervised model ...
2025-08-15 20:37:54,391 | INFO : Model:
EEG2Rep(
  (InputEmbedding): InputEmbedding(
    (depthwise_conv): Conv2d(1, 128, kernel_size=(19, 1), stride=(1, 1))
    (spatial_padding): ReflectionPad2d((3, 3, 0, 0))
    (spatialwise_conv1): Conv2d(1, 1, kernel_size=(1, 7), stride=(1, 1))
    (spatialwise_conv2): Conv2d(1, 1, kernel_size=(1, 7), stride=(1, 1))
    (SiLU): SiLU(inplace=True)
    (maxpool): MaxPool2d(kernel_size=(1, 2), stride=(1, 2), padding=0, dilation=1, ceil_mode=False)
  )
  (PositionalEncoding): PositionalEmbedding()
  (contex_encoder): Encoder(
    (TRMs): ModuleList(
      (0-7): 8 x TransformerBlock(
        (attn): MultiHeadAttention(
          (linear_layers): ModuleList(
            (0-2): 3 x Linear(in_features=128, out_features=128, bias=True)
          )
          (output_linear): Linear(in_features=128, out_features=128, bias=True)
          (attention): Attention()
          (dropout): Dropout(p=0.1, inplace=False)
        )
        (ffn): PointWiseFeedForward(
          (linear1): Linear(in_features=128, out_features=512, bias=True)
          (linear2): Linear(in_features=512, out_features=128, bias=True)
          (activation): GELU(approximate='none')
          (dropout): Dropout(p=0.1, inplace=False)
        )
        (skipconnect1): SublayerConnection(
          (norm): LayerNorm((128,), eps=1e-05, elementwise_affine=True)
          (dropout): Dropout(p=0.1, inplace=False)
        )
        (skipconnect2): SublayerConnection(
          (norm): LayerNorm((128,), eps=1e-05, elementwise_affine=True)
          (dropout): Dropout(p=0.1, inplace=False)
        )
      )
    )
  )
  (target_encoder): Encoder(
    (TRMs): ModuleList(
      (0-7): 8 x TransformerBlock(
        (attn): MultiHeadAttention(
          (linear_layers): ModuleList(
            (0-2): 3 x Linear(in_features=128, out_features=128, bias=True)
          )
          (output_linear): Linear(in_features=128, out_features=128, bias=True)
          (attention): Attention()
          (dropout): Dropout(p=0.1, inplace=False)
        )
        (ffn): PointWiseFeedForward(
          (linear1): Linear(in_features=128, out_features=512, bias=True)
          (linear2): Linear(in_features=512, out_features=128, bias=True)
          (activation): GELU(approximate='none')
          (dropout): Dropout(p=0.1, inplace=False)
        )
        (skipconnect1): SublayerConnection(
          (norm): LayerNorm((128,), eps=1e-05, elementwise_affine=True)
          (dropout): Dropout(p=0.1, inplace=False)
        )
        (skipconnect2): SublayerConnection(
          (norm): LayerNorm((128,), eps=1e-05, elementwise_affine=True)
          (dropout): Dropout(p=0.1, inplace=False)
        )
      )
    )
  )
  (Predictor): Predictor(
    (layers): ModuleList(
      (0-3): 4 x CrossAttnTRMBlock(
        (attn): MultiHeadAttention(
          (linear_layers): ModuleList(
            (0-2): 3 x Linear(in_features=128, out_features=128, bias=True)
          )
          (output_linear): Linear(in_features=128, out_features=128, bias=True)
          (attention): Attention()
          (dropout): Dropout(p=0.1, inplace=False)
        )
        (ffn): PointWiseFeedForward(
          (linear1): Linear(in_features=128, out_features=512, bias=True)
          (linear2): Linear(in_features=512, out_features=128, bias=True)
          (activation): GELU(approximate='none')
          (dropout): Dropout(p=0.1, inplace=False)
        )
        (skipconnect1): SublayerConnection(
          (norm): LayerNorm((128,), eps=1e-05, elementwise_affine=True)
          (dropout): Dropout(p=0.1, inplace=False)
        )
        (skipconnect2): SublayerConnection(
          (norm): LayerNorm((128,), eps=1e-05, elementwise_affine=True)
          (dropout): Dropout(p=0.1, inplace=False)
        )
      )
    )
  )
  (predict_head): Linear(in_features=128, out_features=1, bias=True)
  (Norm): LayerNorm((128,), eps=1e-05, elementwise_affine=True)
  (Norm2): LayerNorm((128,), eps=1e-05, elementwise_affine=True)
  (gap): AdaptiveAvgPool1d(output_size=1)
)
2025-08-15 20:37:54,392 | INFO : Total number of parameters: 3968825
2025-08-15 20:38:08,766 | INFO : Self-Supervised training...
Training Epoch:   0%|          | 0/1000 [00:00<?, ?it/s]2025-08-15 20:38:35,346 | INFO : Epoch 1 Training Summary: epoch: 1.000000 | loss: 2.550652 | align: 1.606930 | std: 0.943535 | cov: 0.000188 | 
…
