2025-08-16 18:04:12,056 | INFO : Stored configuration file in 'Results/Rep-Learning/Dataset/Crowdsource/2025-08-16_18-04'
2025-08-16 18:04:12,273 | INFO : Using device: cuda
2025-08-16 18:04:12,273 | INFO : Loading Data ...
2025-08-16 18:04:14,212 | INFO : Pre-Training Self Supervised model ...
2025-08-16 18:04:14,332 | INFO : Model:
EEG2Rep(
  (InputEmbedding): InputEmbedding(
    (depthwise_conv): Conv2d(1, 64, kernel_size=(19, 1), stride=(1, 1))
    (spatial_padding): ReflectionPad2d((3, 3, 0, 0))
    (spatialwise_conv1): Conv2d(1, 1, kernel_size=(1, 7), stride=(1, 1))
    (spatialwise_conv2): Conv2d(1, 1, kernel_size=(1, 7), stride=(1, 1))
    (SiLU): SiLU(inplace=True)
    (maxpool): MaxPool2d(kernel_size=(1, 2), stride=(1, 2), padding=0, dilation=1, ceil_mode=False)
  )
  (PositionalEncoding): PositionalEmbedding()
  (contex_encoder): Encoder(
    (TRMs): ModuleList(
      (0-3): 4 x TransformerBlock(
        (attn): MultiHeadAttention(
          (linear_layers): ModuleList(
            (0-2): 3 x Linear(in_features=64, out_features=64, bias=True)
          )
          (output_linear): Linear(in_features=64, out_features=64, bias=True)
          (attention): Attention()
          (dropout): Dropout(p=0.1, inplace=False)
        )
        (ffn): PointWiseFeedForward(
          (linear1): Linear(in_features=64, out_features=256, bias=True)
          (linear2): Linear(in_features=256, out_features=64, bias=True)
          (activation): GELU(approximate='none')
          (dropout): Dropout(p=0.1, inplace=False)
        )
        (skipconnect1): SublayerConnection(
          (norm): LayerNorm((64,), eps=1e-05, elementwise_affine=True)
          (dropout): Dropout(p=0.1, inplace=False)
        )
        (skipconnect2): SublayerConnection(
          (norm): LayerNorm((64,), eps=1e-05, elementwise_affine=True)
          (dropout): Dropout(p=0.1, inplace=False)
        )
      )
    )
  )
  (target_encoder): Encoder(
    (TRMs): ModuleList(
      (0-3): 4 x TransformerBlock(
        (attn): MultiHeadAttention(
          (linear_layers): ModuleList(
            (0-2): 3 x Linear(in_features=64, out_features=64, bias=True)
          )
          (output_linear): Linear(in_features=64, out_features=64, bias=True)
          (attention): Attention()
          (dropout): Dropout(p=0.1, inplace=False)
        )
        (ffn): PointWiseFeedForward(
          (linear1): Linear(in_features=64, out_features=256, bias=True)
          (linear2): Linear(in_features=256, out_features=64, bias=True)
          (activation): GELU(approximate='none')
          (dropout): Dropout(p=0.1, inplace=False)
        )
        (skipconnect1): SublayerConnection(
          (norm): LayerNorm((64,), eps=1e-05, elementwise_affine=True)
          (dropout): Dropout(p=0.1, inplace=False)
        )
        (skipconnect2): SublayerConnection(
          (norm): LayerNorm((64,), eps=1e-05, elementwise_affine=True)
          (dropout): Dropout(p=0.1, inplace=False)
        )
      )
    )
  )
  (Predictor): Predictor(
    (layers): ModuleList(
      (0-1): 2 x CrossAttnTRMBlock(
        (attn): MultiHeadAttention(
          (linear_layers): ModuleList(
            (0-2): 3 x Linear(in_features=64, out_features=64, bias=True)
          )
          (output_linear): Linear(in_features=64, out_features=64, bias=True)
          (attention): Attention()
          (dropout): Dropout(p=0.1, inplace=False)
        )
        (ffn): PointWiseFeedForward(
          (linear1): Linear(in_features=64, out_features=256, bias=True)
          (linear2): Linear(in_features=256, out_features=64, bias=True)
          (activation): GELU(approximate='none')
          (dropout): Dropout(p=0.1, inplace=False)
        )
        (skipconnect1): SublayerConnection(
          (norm): LayerNorm((64,), eps=1e-05, elementwise_affine=True)
          (dropout): Dropout(p=0.1, inplace=False)
        )
        (skipconnect2): SublayerConnection(
          (norm): LayerNorm((64,), eps=1e-05, elementwise_affine=True)
          (dropout): Dropout(p=0.1, inplace=False)
        )
      )
    )
  )
  (predict_head): Linear(in_features=64, out_features=1, bias=True)
  (Norm): LayerNorm((64,), eps=1e-05, elementwise_affine=True)
  (Norm2): LayerNorm((64,), eps=1e-05, elementwise_affine=True)
  (gap): AdaptiveAvgPool1d(output_size=1)
)
2025-08-16 18:04:14,333 | INFO : Total number of parameters: 501541
2025-08-16 18:04:34,660 | INFO : Self-Supervised training...
Training Epoch:   0%|          | 0/200 [00:00<?, ?it/s]2025-08-16 18:05:00,646 | INFO : Epoch 1 Training Summary: epoch: 1.000000 | loss: 2.325869 | align: 1.365903 | std: 0.959965 | cov: 0.000035 | 
…
